trained_models/Banknote_SimpleMLP_trained.pth (torch, 2536 bytes, 4 tensors)

fc1.weight f4 [6, 4]
000000 c1 e6 59 3d ed 15 b3 be db e4 c5 3e 67 58 b2 bd
       0.05319858 -0.34977666 0.38651165 -0.08708268
000010 5a 1a 23 be 38 7a 25 bf 66 dd 53 bf c5 e6 6b be
       -0.15928021 -0.64639616 -0.827597 -0.2303725
000020 54 ef 21 bf d4 34 2e 3e 61 c9 c5 3d fb c5 95 3e
       -0.6325581 0.1701234 0.096575506 0.2925261
000030 40 f8 e8 3e 5d bd 8a 3e ba b9 b3 3e 55 dd 03 be
       0.455019 0.27097598 0.35102636 -0.128774
000040 f4 bd 8c be dc 43 1d bf 7b 94 99 bd ff a0 96 be
       -0.27488673 -0.6143167 -0.074990235 -0.29419705
000050 45 46 a8 3e da e1 87 3d 70 e7 a3 3e b0 63 04 bf
       0.3286611 0.06634875 0.3201251 -0.5171461

fc1.bias f4 [6]
000000 7e 64 f1 be b1 c2 6e 3c f7 ef 06 3f 26 8b f5 3e
       -0.47146982 0.014572785 0.5270991 0.47957724
000010 2e c3 20 3f 02 f0 92 be
       0.6279782 -0.28698736

fc2.weight f4 [2, 6]
000000 dd 6b 08 bf a5 d6 20 bf 75 1d fd be 45 33 f9 3e
       -0.53289586 -0.6282752 -0.49436536 0.48671928
000010 e6 e4 b1 bd 4f a3 be 3e a2 b5 a9 bd af 6b fa 3c
       -0.08686237 0.3723397 -0.08286597 0.030568926
000020 1d 69 df 3e 8d 06 f9 be 48 2e f6 3e 1b 1d 05 be
       0.43634883 -0.4863781 0.48082185 -0.12999384

fc2.bias f4 [2]
000000 d5 00 9e 3e 31 d6 c8 be
       0.3086001 -0.39225915
