trained_models/Banknote_SimpleMLP_trained.pth (torch, 2344 bytes, 4 tensors)

fc1.weight f4 [6, 4]
000000 86 2a 54 bf 54 9d 96 bf 3c 53 27 bf 9a f0 e8 bc
       -0.82877386 -1.1766763 -0.6536138 -0.02843504
000010 83 45 91 3f c1 56 84 be 69 c1 e3 3e 58 79 41 3d
       1.1349338 -0.25847438 0.44483498 0.047234863
000020 06 49 4e bf 2e cf 0c bf dd 96 14 bf 4a 5a 59 3d
       -0.80580175 -0.5500363 -0.580427 0.053064622
000030 52 de 38 3f f1 e2 89 3f 17 29 6c 3f b1 6e 03 3c
       0.72214234 1.0772382 0.922502 0.008021996
000040 3b 1c 9d be 71 75 95 bd 23 9b 77 be 61 fc 15 3e
       -0.306856 -0.07297791 -0.24180274 0.14647056
000050 7c 87 16 3f 2a 80 76 3f d9 c7 5a 3f 4b 8f d0 bc
       0.5880048 0.9628931 0.85461193 -0.025458952

fc1.bias f4 [6]
000000 98 4a 30 3f 5c 5d 9b 3e e4 d3 bd 3e 9f 7b 55 3f
       0.6886382 0.30344665 0.37075722 0.83391756
000010 3c 3b 03 bf 8d 2a 69 3f
       -0.5126226 0.9108055

fc2.weight f4 [2, 6]
000000 d0 30 90 bf 96 9b 8f 3f 90 79 89 bf 1a 7e 91 3f
       -1.1264896 1.1219356 -1.0740223 1.1366608
000010 8d ba bb bc 16 64 6a 3f 72 78 bb 3e f6 e6 35 bf
       -0.022916103 0.9155897 0.3661533 -0.71055543
000020 78 06 6b 3f a7 dd 43 bf de 41 8a be 58 cf 88 bf
       0.91806746 -0.7651009 -0.27003378 -1.0688276

fc2.bias f4 [2]
000000 99 32 00 bf ff 20 98 be
       -0.50077206 -0.29712674
