trained_models/Banknote_SimpleMLP_trained.pth (torch, 2536 bytes, 4 tensors)

fc1.weight f4 [6, 4]
000000 8f da 87 3d b2 cf b4 be d4 44 cb 3e 67 67 92 bd
       0.066334836 -0.3531471 0.3970095 -0.07148629
000010 12 42 d6 bd 6f ac 15 bf 8f 17 45 bf fd cd 8d be
       -0.10461821 -0.5846624 -0.7698907 -0.2769622
000020 fa 66 1c bf c1 2d 46 3e bb 75 22 3e 8d cc 77 3e
       -0.6109463 0.19353391 0.15865223 0.24199124
000030 c5 d2 db 3e 1c 58 70 3e 41 cb a1 3e f9 de 14 be
       0.42934242 0.23471111 0.31600383 -0.14538182
000040 c5 52 79 be 12 9c 12 bf b5 6a d7 3c 75 e5 96 be
       -0.2434798 -0.57269394 0.026295999 -0.29471937
000050 af 72 8e 3e 74 06 e8 3c 59 05 a5 3e 3f 89 ea be
       0.27821872 0.02832339 0.32230642 -0.45807835

fc1.bias f4 [6]
000000 b5 95 d9 be 77 24 57 bd 4d 10 06 3f ed 8a e7 3e
       -0.4249703 -0.05252501 0.52368623 0.4522318
000010 af ba 1b 3f c7 8f c0 be
       0.6083173 -0.37609693

fc2.weight f4 [2, 6]
000000 c9 2a 05 bf 55 4b 0d bf d7 0a f2 be ff 54 e2 3e
       -0.5201841 -0.5519307 -0.47273895 0.44205472
000010 bc 28 68 bd 21 ea a0 3e 0b be c3 bd 44 7f 3b bd
       -0.056679472 0.31428626 -0.09557732 -0.045775667
000020 80 56 d4 3e 48 28 e2 be 25 ba e6 3e a2 55 93 bd
       0.41472244 -0.44171357 0.45063892 -0.071940675

fc2.bias f4 [2]
000000 37 ed 9b 3e 91 c2 c6 be
       0.30454418 -0.38820317
