trained_models/Banknote_SimpleMLP_trained.pth (torch, 2536 bytes, 4 tensors)

fc1.weight f4 [6, 4]
0.05319858 -0.34977666 0.38651165 -0.08708268 -0.15928023 -0.64639616 -0.827597 -0.2303725
-0.6325581 0.17012338 0.09657549 0.2925261 0.455019 0.27097598 0.35102633 -0.12877399
-0.27488673 -0.6143167 -0.07499025 -0.29419702 0.3286611 0.06634875 0.3201251 -0.5171461
00000000: c1e6 593d ed15 b3be dbe4 c53e 6758 b2bd
00000010: 5b1a 23be 387a 25bf 66dd 53bf c5e6 6bbe
00000020: 54ef 21bf d334 2e3e 5fc9 c53d fbc5 953e
00000030: 40f8 e83e 5dbd 8a3e b9b9 b33e 54dd 03be
00000040: f4bd 8cbe dc43 1dbf 7d94 99bd fea0 96be
00000050: 4546 a83e dae1 873d 70e7 a33e b063 04bf

fc1.bias f4 [6]
-0.47146982 0.014572778 0.5270991 0.47957724 0.6279782 -0.2869874
00000000: 7e64 f1be a9c2 6e3c f7ef 063f 268b f53e
00000010: 2ec3 203f 03f0 92be

fc2.weight f4 [2, 6]
-0.53289586 -0.6282752 -0.49436536 0.48671925 -0.08686238 0.3723397 -0.08286597 0.030568931
0.43634883 -0.4863781 0.48082185 -0.12999383
00000000: dd6b 08bf a5d6 20bf 751d fdbe 4433 f93e
00000010: e7e4 b1bd 4fa3 be3e a2b5 a9bd b26b fa3c
00000020: 1d69 df3e 8d06 f9be 482e f63e 1a1d 05be

fc2.bias f4 [2]
0.30860013 -0.39225915
00000000: d600 9e3e 31d6 c8be
