trained_models/Banknote_SimpleMLP_trained.pth (torch, 2536 bytes, 4 tensors)

fc1.weight f4 [6, 4]
0	0x3e4dde5f	0.20104359
1	0xbe96891c	-0.2940148
2	0x3eb98643	0.36235246
3	0x3ca60ca7	0.020269705
4	0x3e2607a9	0.1621386
5	0xbec4d705	-0.38445297
6	0xbf093b07	-0.53605694
7	0xbe826663	-0.2546874
8	0xbef1f839	-0.4725969
9	0x3ea6bad0	0.32564402
10	0x3e4ff452	0.20308045
11	0x3e519fef	0.20471166
12	0x3e805822	0.2506724
13	0x3d99e8dd	0.07515118
14	0x3ea35b5f	0.31905648
15	0xbe9214b8	-0.28531432
16	0xbd85fb40	-0.06542063
17	0xbedb3b90	-0.4281888
18	0x3e340961	0.17581703
19	0xbe66d02f	-0.22540353
20	0x3e5c875e	0.21536013
21	0xbd2723a1	-0.040805463
22	0x3eb55536	0.35416573
23	0xbea2627e	-0.3171577

fc1.bias f4 [6]
0	0xbea504e5	-0.32230297
1	0xbe990a59	-0.29890707
2	0x3efbd339	0.49184588
3	0x3e83af00	0.25719452
4	0x3f0b9ce5	0.5453628
5	0xbeec4e91	-0.4615369

fc2.weight f4 [2, 6]
0	0xbeee92d3	-0.46596393
1	0xbeb9f1ea	-0.36317378
2	0xbeb4b698	-0.35295558
3	0x3e4dfdda	0.20116368
4	0x3d857335	0.065161146
5	0x3e91b753	0.28460178
6	0xbe19648d	-0.14979763
7	0xbe702953	-0.23453264
8	0x3e97023f	0.294939
9	0xbe4da46c	-0.20082253
10	0x3ea85840	0.3287983
11	0xbd2d1488	-0.04225591

fc2.bias f4 [2]
0	0x3e6c3395	0.23066552
1	0xbea0ef30	-0.31432486
