trained_models/BiggerMLP_trained.pth (torch, 23044 bytes, 10 tensors)

module.fc1.weight f4 [64, 30]
00000000: 3116 39be ecf0 98bd 7da5 97be 4862 863e
00000010: b269 64bc a8bd b53e 1c28 83be e89e 1d3e
00000020: 22a2 18be 7d2d 6f3e 19c0 3abe 4881 67be
00000030: f74e 0a3d 48ff 80be bda6 9d3e d862 2cbc
00000040: 576b 833e dcf6 02be 46d3 e6bd f1e4 d8be
00000050: 28f3 fb3d d874 1b3e 91b7 953e 1d76 833d
00000060: 35f8 30bd 575b 36bd 2290 523e bf85 e33e
00000070: d777 ea3c 1c0c c1be 7464 ccbe fa53 2f3e
00000080: d4d3 cb3e a10c 72be e9d5 663e cda3 bf3e
00000090: 056b c83e ce78 913e 1091 94be 2ca0 a03e
000000a0: 10bc 803c ef73 89be 164d e3be 88d4 33be
000000b0: aa7d be3e 6dc8 e43e d632 a83e dad6 a1be
000000c0: 360f 843e 5c2a 7d3e f7a3 ce3e ebbe 86be
000000d0: 28a8 bd3e 2565 6fbd 51f2 363e 29b8 c3be
000000e0: c7ec 8dbd 9de5 90be a53d 02be 4fe8 3dbd
000000f0: 3db6 f6bd 03fa 643e 3ded e63e 01f0 e23d
00000100: 5f0a 26be 720e debd c9d9 49be 17e6 b4bd
00000110: 928f 0bbc 46a2 973e 8a74 933d b822 bbbe
00000120: 9a3c 05be 4f86 62be 7239 363e fd00 d23e
00000130: a22d bb3e f892 e83d 3b1d 83be 7226 133c
00000140: af2b d83d fec7 053d 7aae 8e3e 3f75 563e
00000150: d302 e8bd e933 40be eb96 3f3c 16ca 93bc
00000160: 9007 083d 981e d1be d1d5 d6be f406 ce3e
00000170: 2c6b df3e b8b4 c8be bb68 a0be aa24 85bd
00000180: 469b 81be 967f e0be abb9 0d3e e779 92be
00000190: 7be1 123e b5e8 93be 6e47 bfbc 796b 11be
000001a0: d263 adbd 2f4f 46be b2e4 bfbe a874 b93e
000001b0: 1b8f 18bd 3d9f 76be 54dd d53e c3d3 693d
000001c0: 8dcd d7bd 2f0d 053e ad07 e0bc 29ae e53d
000001d0: cc44 c03e c224 293e 1f66 a13e 9826 723e
000001e0: bb9b 15be fd6f a6bb d48a 53bd 5098 f03e
000001f0: e8c1 0cbe b4e8 a53e a1a6 27be cb95 b03e
00000200: 4b0e 643e 66d1 8f3e f625 89be dca8 bf3c
00000210: 57cb ed3e 25b3 9fbe 9296 89bd e6ec d7be
00000220: 72f2 c5be 4792 b43e 4577 70be fb9a 983d
00000230: bf7a b1be 51dd 9dbe 9db3 df3e e4c2 e93d
00000240: fe7c c1bd 9a6a 01be f334 d13e 44c8 9e3e
00000250: 6833 af3e 2581 db3e c619 5d3d c9d9 c73d
00000260: c543 6c3d dfc6 48be e0eb b2be 0a67 ae3e
00000270: 6c68 6a3e a3c2 f2bd d710 f9bd f0c1 de3e
00000280: 53c0 2bbe c9ce 0b3d 441f 0abe 1179 98be
00000290: dfc2 9ebe 753a da3e b532 c63e 9eb1 5d3e
000002a0: b14d 00be 56e7 f0bd f58a 953e d59c ba3e
000002b0: b4df f03e cf22 303e 54be 15be b300 8ebe
000002c0: 2267 a03e fd5e d5be ad03 b7be 4a47 d4bc
000002d0: 5576 59bd 7a68 783e 33da 91be 0a87 b9bd
000002e0: 2872 a6be 035f 9d3e 42bb 993d 8c4b 7fbe
000002f0: 99af cbbd 6fdc 9b3e 5005 c03e e174 c6be
00000300: 4424 78be 86cf ad3d 4213 093e 1f96 8bbe
00000310: 604e 3a3e a0e2 0b3d 7fb2 68be 2eda a4be
00000320: 45bf 703c 3928 223e 781c 633e 8f00 353e
00000330: 2873 aa3e eb2b ca3e 7ccc 91be d498 29be
00000340: 4363 b7be 1d30 bb3e 9176 dabe 3fec 5cbe
00000350: 8a0e d0be ae44 98bd 7709 34be 8e04 843e
00000360: 706f bfbe fd38 823e 9ef1 2abe 8c5a b13d
00000370: 5723 94be 5773 fe3d 4418 b23e 52ea 143e
00000380: ff24 0c3e b75a f0bd e012 d8be f3ea 013e
00000390: 4290 a33e 1be9 803e bc17 c43e fe7b 71be
000003a0: f3db 813e ece9 993e a2ab a93e f0f0 70be
000003b0: c0d4 a53e b023 cbbe 53f7 75be 962e 6f3e
000003c0: ea05 b53e ab1c 973e bfee efbd aced abbe
000003d0: fb04 8d3e 4a70 64be 672e 9f3e d7c6 89bb
000003e0: 0f90 383e ff08 a53d 8b6e 73bd 11b9 42be
000003f0: c1b9 c2bd 8302 f2bd 5a23 bcbe 3e89 1b3e
-0.18074872 -0.07467827 -0.29618445 0.26246858 -0.013941215 0.3549626 -0.2561654 0.15392649
-0.14905599 0.23357196 -0.18237342 -0.2260791 0.033766713 -0.25194764 0.30791274 -0.010521613
0.2566783 -0.12789482 -0.11270766 -0.42362168 0.12302238 0.15181291 0.29241613 0.06419013
-0.04320546 -0.044520702 0.20562795 0.44437978 0.028621597 -0.3770455 -0.3992039 0.17121878
0.3981005 -0.2363763 0.22542538 0.37429658 0.3914415 0.2841248 -0.29016924 0.313722
0.015714675 -0.26846263 -0.4439475 -0.17561543 0.3720525 0.44684163 0.32851285 -0.3160923
0.25792855 0.2472319 0.4035947 -0.26317534 0.37042356 -0.05844607 0.17865874 -0.3822644
-0.06929927 -0.2830018 -0.12718828 -0.046364125 -0.12046478 0.22360997 0.45102873 0.11080933
-0.16214894 -0.10842599 -0.19711985 -0.08832949 -0.008518117 0.29615992 0.071999624 -0.36549926
-0.13011399 -0.22121547 0.17795351 0.4101638 0.36558253 0.11356157 -0.2560824 0.008981334
0.10555207 0.03266143 0.2786749 0.20943163 -0.11328664 -0.18769802 0.0116936965 -0.018040698
0.033210337 -0.40843654 -0.41960004 0.4023968 0.43636453 -0.39200377 -0.31329903 -0.06501134
-0.25313777 -0.4384734 0.13840358 -0.2860863 0.14343826 -0.2888848 -0.02334949 -0.14201154
-0.08466305 -0.19366144 -0.37479168 0.36221814 -0.03724585 -0.24084182 0.41770422 0.057086717
-0.105372526 0.1299331 -0.02734741 0.11214859 0.37552488 0.16517928 0.31523225 0.23647535
-0.14610188 -0.005079268 -0.05164607 0.46991205 -0.13745844 0.324041 -0.16372158 0.34489283
0.22271077 0.28089446 -0.26786774 0.023395948 0.46444198 -0.31191364 -0.06718172 -0.42172927
-0.38661534 0.3526785 -0.23482998 0.07451435 -0.3466396 -0.30832914 0.43691722 0.114141256
-0.094476685 -0.12638322 0.4086071 0.31012166 0.34218907 0.42871967 0.053979658 0.09758336
0.057681818 -0.19607113 -0.34945583 0.34062988 0.22891396 -0.1185353 -0.12161415 0.43507338
-0.16772585 0.034132753 -0.1348849 -0.29779866 -0.3100805 0.42622724 0.3871056 0.21649787
-0.12529637 -0.11762874 0.29207578 0.36447778 0.47045672 0.17200778 -0.14623386 -0.27734908
0.31328684 -0.41674033 -0.35744992 -0.0259129 -0.053091366 0.24258605 -0.28486785 -0.0905896
-0.3250897 0.3073655 0.0750642 -0.24931163 -0.09945602 0.30441615 0.37504053 -0.38761047
-0.24232584 0.084868476 0.13386253 -0.2726297 0.1819396 0.034151673 -0.22724341 -0.32197708
0.01469404 0.15835656 0.22178829 0.17675994 0.33290982 0.39486632 -0.28476322 -0.16562206
-0.35817918 0.36560145 -0.42668584 -0.21574496 -0.40636092 -0.074349746 -0.17581736 0.25784725
-0.37389708 0.25434104 -0.16693732 0.086598486 -0.28933212 0.12424343 0.34784138 0.14542511
0.13685988 -0.117360525 -0.422019 0.12687282 0.31945997 0.25177845 0.38299358 -0.23582456
0.2536312 0.3006128 0.33138758 -0.2352941 0.32388878 -0.39675665 -0.24020128 0.23357615
0.35356075 0.2951406 -0.11715459 -0.33579767 0.27542862 -0.2230846 0.3109009 -0.0042046118
0.18023704 0.080583565 -0.059431594 -0.1901591 -0.09508086 -0.11816885 -0.3674572 0.15189072

module.fc1.bias f4 [64]
00000000: 788e c0bb 0000 0000 3ddf 353d 0000 0000
00000010: dae1 223d c4b5 803d 383a d13c a4eb b83a
00000020: 0000 0000 e11c 18bc d9c5 c4bb 0000 0000
00000030: 63c4 a4bc 0000 0000 3384 ecbd 0000 0000
00000040: e838 d83b 0000 0000 c21d 24bc 9668 cabc
00000050: 5fde da3c 38a0 cdbb 190b 3d3e 0000 0000
00000060: 624f eb3b 2c1f 3ebc d167 1a3e 4353 b7bc
00000070: 6b4c 6fbc a9c9 acbc 0000 0000 0000 0000
00000080: af4a e8bc 0000 0000 c488 003c 0000 0000
00000090: 3381 d0bb 0000 0000 2688 9dbc 747e 4e3c
000000a0: 548e 1dbb 7904 04bd 0000 0000 0000 0000
000000b0: a76a 61bc c17c a73d efb4 853c 5db3 9a3c
000000c0: e8aa 473c 0000 0000 0000 0000 8c98 71bc
000000d0: 0000 0000 d2ea 9dbc 0000 0000 0843 d83c
000000e0: 0000 0000 09c9 a63b 0000 0000 d805 d43b
000000f0: 66af a6bc 0000 0000 0000 0000 25b5 a737
-0.0058763586 0.0 0.04440235 0.0 0.03976617 0.06284669 0.025540456 0.0014108312
0.0 -0.009284229 -0.0060050306 0.0 -0.020113176 0.0 -0.115486525 0.0
0.0065985806 0.0 -0.01001686 -0.024708074 0.026717363 -0.006275203 0.18461265 0.0
0.007181094 -0.011604112 0.15078665 -0.02237857 -0.014605622 -0.021092253 0.0 0.0
-0.028355924 0.0 0.0078451075 0.0 -0.006363058 0.0 -0.01922996 0.012603391
-0.0024041133 -0.032230828 0.0 0.0 -0.013758338 0.08178092 0.016321627 0.018884355
0.012186743 0.0 0.0 -0.014745843 0.0 -0.01927701 0.0 0.02639915
0.0 0.005089883 0.0 0.006470423 -0.020347308 0.0 0.0 1.9992303e-05

module.fc2.weight f4 [32, 64]
00000000: 4882 4d3e b9b7 85be 2b42 773e 0da0 333e
00000010: 9da6 bcbc 7df8 923e d111 1b3c dfd5 5cbe
00000020: 29e7 5dbe 2c5b 623e f96d 7bbe 7c8d d2bd
00000030: dd4e 803e a533 213e 98ed c13e 4c40 d93d
00000040: 82c8 703c fc8b 113e ffd8 0cbe 2deb 443e
00000050: 9d08 13be c39b b9bd 950b 71be 333d 2bbe
00000060: f6cc d7b9 397b 7cbd 6fd3 20be b6e7 4e3e
00000070: b57b 773e 66b3 1ebe 0119 953e 9c8d 5b3e
00000080: ab94 a0bd 8ed7 5f3e 4d34 bbbd ef91 913e
00000090: e7c9 4ebc 2aa3 6c3e 489a 833e 831b 5e3e
000000a0: 00a9 013e 1555 4b3d 8212 7bbe e56d 643b
000000b0: 855b 483e 4f01 983e bbe1 eb3d 3a77 3bbe
000000c0: 3f85 e1bb 356f 02be 7f72 18bb 3c13 44be
000000d0: b10f eebc dcdb 313b 998f 373e b83b 02be
000000e0: 809f 6abe 93a4 3bbc 6dbd 963e e842 143e
000000f0: 8260 303e f3b7 98be aeba 46bb 2f92 6bbd
00000100: d3e3 8a3d 1dc9 6b3e 7353 9b3e f41d 013e
00000110: 543c 5b3e abe8 6fbd f5f9 c9bc d4bd 8fbe
00000120: dcc6 5abe 655c 94be d7da 3e3e 1a01 173e
00000130: 240b 70be 5c0b 7a3e dd47 b7be b81c fb3c
00000140: 50b1 88be c35e 803e 425f f2bd 42f4 4dbe
00000150: 75e3 1c3e da57 74bd 60b0 b63e 1054 923e
00000160: 885c 6a3e 1fc3 593d 1465 d53d 93f2 54be
00000170: 7a6a 32be 466c 31be 761b 3e3e 3c8d 503c
00000180: 701c 46be 4908 8d3e 1e51 bfbd 1ee8 993e
00000190: 93bd 9e3e 6dad 583d e841 7bbe 30d3 de3d
000001a0: d803 803c 7cb7 0fbe bb9f 3bbe df6d 5abe
000001b0: 7b41 773d 7d0c 0f3e dab6 7d3d d11d 413e
000001c0: b5b0 b3bd 6027 e2bd 9c79 993e 65a3 5ebe
000001d0: 4272 90be 6d41 9f3e 894e 423e 7bb4 20bd
000001e0: 25bb bf3d d03d a3bd 37bf 2dbd 1ee2 743d
000001f0: 6253 c7bd 5835 b03c 2292 ebbd 10aa 7cbe
00000200: 300f 083e 8e09 66be 599a 9ebe d327 783d
00000210: 01cd 5a3e ffee c33d e359 62be 8d99 373e
00000220: af8f b5bd 4d43 50bc d283 343e 7b6d f63d
00000230: c59b f2bd a67f 3e3e 1ad1 8f3c eba6 a8bd
00000240: c76a 513e c8d5 8dbd 2b90 b3bc ae36 903e
00000250: d644 923e c157 873d b4d8 9d3d 1cea 30bd
00000260: c5a9 19be aadc 8c3e 658b 013d 26d1 4c3e
00000270: 6c80 1dbe 8f68 1c3e b452 803e ecf3 ef3c
00000280: a107 483e 6e3e 8ebe 8768 f13d 77de 9abd
00000290: 780c 863e 6358 e23d a4dc 973e e68c e8bd
000002a0: 32e0 a53c 6ffc 573e 55bf 62be dcb6 dabd
000002b0: 2cef 82be 7c53 75be 849c 013e 32c2 cfbd
000002c0: 2962 3b3e f191 e73c 17d6 dc3d 98c9 ab3c
000002d0: 61ea 92be bc39 66bd af2e 2cbe 2fb8 05be
000002e0: 6047 7c3e 444a 7fbe 5aee 64be aa38 e2bd
000002f0: ab6c 12be bbc7 9a3d 842e 493e 9952 273d
00000300: cfb1 b03b 2999 163e ca3b 3b3e f366 303c
00000310: b9b8 53be 10d7 87be 2371 9c3e 38f3 cb3d
00000320: cf85 8f3e 74ad f0bd d169 ac3d 561b 25be
00000330: fd0f 25be aa78 0fbe baad 9c3e 1e97 643e
00000340: 17f3 40be 0b2e 5dbe 2ad6 ce3d 22dd 93bd
00000350: 49e9 6f3c 2320 203d 8a44 89be ec80 8a3d
00000360: e756 2fbb 6f6f 5bbe 0c08 9bbe 9017 203e
00000370: f859 8fbe 6c3e 0dbe f892 3e3e afeb 50be
00000380: 557c 14be 208f 45be 3890 383e 5701 c23d
00000390: da70 013d 25cb dc3d c966 b33d 1c7d 84bd
000003a0: c02b e7bc ac40 44be 4945 13be b5d8 9a3b
000003b0: ec33 18bd 9bdb 9d3d fed0 143e 4283 703e
000003c0: 4137 963e a5a1 bebc 7041 f73d 7bef 7dbe
000003d0: e873 353e 7daa a7bd 68c9 78be b61f 74be
000003e0: 91b2 82be f1d0 10be 8a2a 0f3e eeba 7fbe
000003f0: 3806 14bd f4e7 42bd b8a9 e63d b3a1 ffbd
0.2006923 -0.26116732 0.24146335 0.17541523 -0.023028666 0.28705207 0.009464697 -0.2156596
-0.21670212 0.22105092 -0.2455367 -0.10280892 0.25060168 0.15742357 0.37876582 0.10607967
0.014696242 0.14213556 -0.13754652 0.19230337 -0.14358754 -0.09062912 -0.23539574 -0.16722564
-0.00041160703 -0.06164095 -0.15705656 0.20205578 0.24168284 -0.15498123 0.2912064 0.21440738
-0.07840856 0.21859571 -0.09140835 0.2843165 -0.012621379 0.23109117 0.25703645 0.21690182
0.12662125 0.049641687 -0.24518779 0.0034855541 0.19566162 0.29688498 0.11517664 -0.183072
-0.0068823393 -0.12737735 -0.0023261604 -0.19147962 -0.029060217 0.0027139103 0.17925872 -0.12718093
-0.22912407 -0.011452812 0.29441395 0.14478648 0.17224315 -0.29827842 -0.0030323672 -0.05751246
0.06781735 0.23025937 0.30337104 0.12609082 0.21409732 -0.0585715 -0.024655322 -0.28074515
-0.21364921 -0.2897674 0.18638168 0.14746514 -0.2344175 0.24418396 -0.35797015 0.030653343
-0.2669778 0.25072297 -0.11834575 -0.20112708 0.15321143 -0.059654094 0.35681438 0.2857976
0.2288686 0.053164598 0.1041967 -0.2079566 -0.1742343 -0.1732646 0.18565163 0.012728985
-0.19346786 0.27545384 -0.09341644 0.30059904 0.3100401 0.052899767 -0.2453686 0.108801246
0.015626833 -0.14034837 -0.18322651 -0.21330975 0.06036518 0.13969608 0.06194196 0.1885903
-0.087739386 -0.110426664 0.29975593 -0.21742018 -0.28212172 0.31104603 0.18975271 -0.03923462
0.09361867 -0.07970774 -0.042418685 0.059785955 -0.09732701 0.021509811 -0.11502482 -0.24674249
0.13287044 -0.22464582 -0.30977133 0.060584854 0.21367265 0.09567069 -0.22104602 0.17929669
-0.08865296 -0.012711358 0.1762841 0.120326005 -0.11846117 0.18603382 0.017555762 -0.08234962
0.20450889 -0.06925541 -0.02191933 0.28166717 0.28568143 0.066085346 0.077073485 -0.043192014
-0.15006168 0.27512103 0.031627078 0.20001659 -0.1538102 0.15274261 0.25063097 0.029291116
0.1953416 -0.27782005 0.11787515 -0.07561963 0.26181388 0.11052015 0.29660523 -0.11354999
0.020248506 0.2109239 -0.221433 -0.10679409 -0.255731 -0.23957628 0.12657362 -0.10144462
0.18299164 0.028267832 0.10783022 0.02097015 -0.28694442 -0.056207404 -0.16814683 -0.13058542
0.24636602 -0.24930674 -0.22356549 -0.11045964 -0.14299266 0.07557627 0.1964665 0.040850256
0.00539229 0.14706863 0.18284526 0.0107667325 -0.20675935 -0.26531267 0.30555066 0.099585
0.28031775 -0.117518336 0.084186204 -0.16123709 -0.1611938 -0.14010873 0.30601293 0.22323272
-0.18842731 -0.21599595 0.10099442 -0.07219912 0.014643022 0.039093148 -0.26810104 0.06762871
-0.0026754679 -0.21429227 -0.30279577 0.15633988 -0.27998328 -0.13793343 0.18610752 -0.20402406
-0.14500554 -0.19292879 0.18023765 0.09472912 0.031601764 0.10780934 0.08759839 -0.06469175
-0.028219104 -0.19165295 -0.14381899 0.0047255405 -0.03715889 0.07707902 0.14532849 0.23487571
0.2933903 -0.023270437 0.12073028 -0.24798386 0.17719996 -0.08186815 -0.2429558 -0.23840222
-0.2552686 -0.14142205 0.13981071 -0.24973652 -0.036138743 -0.04758449 0.1126284 -0.124820136

module.fc2.bias f4 [32]
00000000: b052 b1bb 9b3b f13c 7f62 9ebc 0000 0000
00000010: 5189 273c 1f8b babc 0000 0000 ab2a 0e3a
00000020: 0000 0000 abdb 32bc 07c6 143d 3f02 fabc
00000030: 0000 0000 0000 0000 0000 0000 2022 a63b
00000040: 629c 213d 8411 e6bb d019 1abc 3dbe 83bc
00000050: 0000 0000 0000 0000 0000 0000 0000 0000
00000060: 0000 0000 875e 96b9 0000 0000 0776 87bb
00000070: a1ee 61bd 67bc b63c 0000 0000 0000 0000
-0.0054114684 0.029447367 -0.019334076 0.0 0.01022561 -0.022771416 0.0 0.0005423228
0.0 -0.010916631 0.036321666 -0.03051865 0.0 0.0 0.0 0.005069986
0.03945578 -0.007021131 -0.009405568 -0.016081924 0.0 0.0 0.0 0.0
0.0 -0.00028680658 0.0 -0.004133943 -0.055159215 0.022306634 0.0 0.0

module.fc3.weight f4 [16, 32]
00000000: 2c3d a93e 3196 d73d 0ecb 633e fc8d 6b3e
00000010: c3ae 733e 7033 c23e 7f37 243e 3c52 adbd
00000020: c2b6 283e 9485 ccbc 1d2d 53be ef10 243e
00000030: 63a8 dd3e fa4d a63e 612c 3fbe 4b9e 0fbd
00000040: 1aa0 2e3e 6ef9 7a3e 6729 bdbe 90c2 843d
00000050: 3f6b 51bd 80bb d43e e70f fc3d bf03 47be
00000060: 8d4a 0dbe 6da2 b73e d932 03be 7c75 9e3d
00000070: 2923 c53e 0c53 c1be fc4e 11bd e4e7 c7be
00000080: d7b0 06be 1ca7 223e f911 7e39 1fd7 5b3e
00000090: 35e2 96be 578e 453e acd9 40be 69bb 8f3e
000000a0: d749 e6bd 3a6e b53e c58f 0e3d a6b1 173e
000000b0: 9dd8 a7be 61d5 813d 5995 a33e 6434 a9be
000000c0: ae05 a43e 6346 253e 65bb 3cbe 219c 90be
000000d0: 4c2d 883e 1af0 06be d9e5 573e c499 583d
000000e0: b60a cf3e a9a1 98be 893b 78bd a61e 423e
000000f0: bee0 59be 03a2 f3bd 6a39 c2bd 9e76 d93e
00000100: 28ed 383e 0145 01bf 6096 e33d fa56 bb3e
00000110: 03f5 533e 7b27 c33e 1f92 afbd 2657 023d
00000120: fca5 d83e 889b c73e 56b2 0fbe 2de8 9b3d
00000130: 101f 903c 65a6 c33e 23b7 42be b7ce 89bd
00000140: f33a 163e 080f a2bd 1498 55be c261 b73e
00000150: 5080 24be 8335 883e a3af c7bd 56a9 dabe
00000160: c442 99be 88e5 cb3d cbc7 9e3e 240b 83bd
00000170: a52b 8b3e 8e74 8b3d 108d 3c3e 2487 db3e
00000180: 35fd 9b3e b94d da3e ece3 87be 4489 a3be
00000190: f490 b53e 5b14 d33e 564f 613e 2699 3b3e
000001a0: a92e cdbd 3388 243e 9284 47be 7a14 06bb
000001b0: 6875 cf3e 14ac 8bbe fd52 babe 4d5d 99bc
000001c0: 1f8c 733e 9cef c7be c605 8f3e 1f59 f33c
000001d0: 8e33 543d c747 893e de2f 603e f133 c9bc
000001e0: c1ed d2be 9dda c53e 198e 0fbe 5311 73be
000001f0: cf8f 1e3e 56fa 9a3e 0c8e 7c3d 984d 7cbe
00000200: a5b0 cdbe 273c 383e 6e86 123e 9fc7 833e
00000210: 898f d83e 1f38 7abe 16bb 093e 5398 d73e
00000220: 947e 5dbc 7e50 2dbe 8967 b1be 7ba8 ccba
00000230: 80f1 5fbe 25ef 96be 32cc d2be e550 2e3e
00000240: be50 91bd 4d74 363e 758c 663e f6ac e0be
00000250: b3c0 20be e891 c53e 9dcf 98bd 485c 953e
00000260: 16ac bfbe 644c c63e af41 3b3e e9af 9bbe
00000270: 48dc be3d 60f0 883e 3de6 6e3e 482c ac3d
00000280: f643 2cbe 82cc 0abe aaeb a0be f8ea d93e
00000290: 6531 a93d b52a c03d e00e 80be ea1d adbe
000002a0: 7677 50bd b5eb 643e 5c3c a73e d1e3 2dbd
000002b0: 4f3c 3a3e 4526 9cbd 41a4 03be 248f dd3e
000002c0: 7ef7 d73d 10a5 d93e 267a d9be 11a9 0c3d
000002d0: a7d4 17be 6cb3 ab3e 8f42 5e3e 44f1 933d
000002e0: ef0d 8a3e 2592 83be 8684 e8bd 4f0a 613e
000002f0: ffe5 80be 4f39 d53d 9542 103e f151 b8be
00000300: 604d 82be 8515 a4be 50c6 cabe b753 1dbe
00000310: 0b61 0b3e e8a9 243e bc4b 7b3e f251 5e3d
00000320: 93e7 8dbe d009 d1be 0330 c13e 41ac 9d3d
00000330: c718 aa3e b3ec cfbe ff23 71be 2715 3bbc
00000340: 7673 b73e 96d3 b5be 6bd6 6bbe 3d31 a8be
00000350: 538d 613e 9efe 083d dd65 28be 99d8 933e
00000360: bbd1 a4be 0a2c 2fbd ebbe 4abe 1716 c6bd
00000370: 7a6d 923b 466a 20bc c0a0 db3e 62b1 c3be
00000380: 3c91 3fbe c6c7 903d eb35 40be 00f1 cd3e
00000390: 9cd6 5f3e b9b8 a53e d4d1 a23e 775e e1bc
000003a0: 0815 923e 7915 32bd df88 9e3e b5a3 823d
000003b0: 4e92 303e 80b3 363e ff4f 28be 19b1 bc3e
000003c0: 5507 b33e ae55 debd c925 0abe bb33 c7be
000003d0: b744 693e 42ef a9be 05d0 ccbe 4b6f b63e
000003e0: 5087 c43d e6b9 be3e 4276 b9be e4c6 79be
000003f0: d5b3 f7bd 9a23 873e e04f a8be eb06 bfbe
0.33054483 0.105266936 0.22245428 0.23003381 0.23797135 0.3792987 0.16036795 -0.084629506
0.16475967 -0.024966039 -0.20622678 0.16022085 0.4329253 0.32481366 -0.18669273 -0.03506307
0.17053261 0.24509212 -0.3694565 0.06482422 -0.05112767 0.415493 0.12307721 -0.19435023
-0.1379797 0.3586611 -0.12812366 0.07737252 0.38503388 -0.37758672 -0.035475716 -0.39044106
-0.13153397 0.1588406 0.00024230023 0.21468781 -0.29469457 0.1929258 -0.18833035 0.2807267
-0.112445526 0.3543566 0.034805078 0.14813861 -0.3278245 0.06339527 0.3194988 -0.33047783
0.32035583 0.16140132 -0.1843086 -0.28244117 0.2659706 -0.13177529 0.21083774 0.052881017
0.4043786 -0.29810837 -0.060603652 0.18957004 -0.21277139 -0.11896136 -0.09483607 0.4247331
0.18059218 -0.50495917 0.11112666 0.36589795 0.20698933 0.3811606 -0.08572792 0.031821392
0.42314136 0.38985848 -0.14032874 0.076126434 0.017592937 0.38212886 -0.19015174 -0.06728881
0.14670925 -0.07913023 -0.20858794 0.3581677 -0.16064572 0.26603326 -0.09750297 -0.42707318
-0.2993375 0.09955889 0.31011805 -0.06398609 0.27181736 0.068093404 0.18413186 0.42876542
0.3046662 0.42637423 -0.26541078 -0.31940663 0.35462153 0.41226467 0.2200292 0.1832014
-0.10018665 0.16067581 -0.19484165 -0.0020458982 0.4051926 -0.27279723 -0.3639144 -0.018721247
0.2378392 -0.39049995 0.27934092 0.029705582 0.05180698 0.26812574 0.2189326 -0.0245609
-0.41197017 0.3864335 -0.1401905 -0.23737077 0.15484546 0.30269116 0.061658904 -0.24638975
-0.40173832 0.17991696 0.14309093 0.25738236 0.4229701 -0.24435471 0.13450274 0.42108402
-0.013518948 -0.16925237 -0.34649304 -0.0015614176 -0.21869469 -0.29479328 -0.41171414 0.17023046
-0.070954785 0.17817803 0.22514518 -0.4388196 -0.15698509 0.3858788 -0.07461474 0.29171968
-0.3743598 0.38730156 0.18286775 -0.30407646 0.09319359 0.26745892 0.23330016 0.084068835
-0.168228 -0.13554576 -0.31429797 0.4256208 0.082613744 0.09383146 -0.2501135 -0.33811885
-0.050895177 0.2235554 0.32663238 -0.04245359 0.18187068 -0.07624487 -0.12855627 0.4327327
0.10545252 0.42508745 -0.42476004 0.03434092 -0.14827214 0.33535326 0.21705078 0.07223752
0.26963755 -0.25697437 -0.11353402 0.21976589 -0.25175473 0.10411321 0.14087899 -0.36000016
-0.25449657 -0.32047668 -0.39604425 -0.15363966 0.13611238 0.16080439 0.24540609 0.054277368
-0.2771574 -0.408278 0.37731943 0.076988705 0.3322203 -0.40610275 -0.23548888 -0.011418617
0.35830277 -0.3551299 -0.23031013 -0.32850066 0.22026567 0.033445947 -0.16445108 0.28876188
-0.32191262 -0.04276661 -0.19799392 -0.09672182 0.004468617 -0.009790963 0.4289608 -0.3822127
-0.18707746 0.07069354 -0.18770568 0.4022293 0.2185921 0.32367495 0.3180071 -0.027510865
0.2853167 -0.04347751 0.309638 0.06378881 0.17243311 0.17841911 -0.16436766 0.36853865
0.3496653 -0.10856186 -0.13490976 -0.38906655 0.22780119 -0.33190352 -0.40002456 0.35631785
0.09596121 0.37251204 -0.36223036 -0.24392277 -0.12094847 0.2639435 -0.3287344 -0.37309965

module.fc3.bias f4 [16]
00000000: 0539 dcbb 0000 0000 3f33 c1bc 3961 da3c
00000010: 008a 0abc 0000 0000 0000 0000 0068 473c
00000020: 0000 0000 0000 0000 2090 983c 466a 0ebc
00000030: fd3f 453c 0d04 6d3b 0000 0000 266a 103c
-0.0067206644 0.0 -0.023584006 0.026657688 -0.008455753 0.0 0.0 0.012170792
0.0 0.0 0.018623412 -0.00869233 0.012039182 0.0036165745 0.0 0.00881437

module.fc4.weight f4 [8, 16]
00000000: 7db9 6c3c 6170 3f3e 8c95 b6be acc4 9b3e
00000010: 6afd e83e d221 693d e1ef 923e f2bf b6be
00000020: bc75 853e ca4a b7be c5fa 65be c930 fbbd
00000030: e9b4 32bc bfeb 0b3f 60f3 b83d 6954 193f
00000040: b1e8 133e 38c8 43be c955 4fbe 1f2c 75bd
00000050: c7bc cdbe d848 733e fc2f 0c3f 5536 b43e
00000060: 18bc bf3e c83c 183f 2e04 a23d fd9a 18bd
00000070: 2801 54be c13a 03bf eda2 cfbe 6db4 07bd
00000080: 1919 ddbe ad35 d8be d915 cf3d 8e2e b4be
00000090: b443 02bf 3fc8 d9be d426 703e 163b ac3d
000000a0: 3d02 15bf 51fd fcbe 2480 7a3e e4d4 123f
000000b0: 3236 593e d9cd 9d3e c6cd e8bc b996 843e
000000c0: a64b 963e 2f5d a8be dd2a 983e e1b3 3dbe
000000d0: c02e 573e aab6 13bf 46e9 a9be 4452 cbbe
000000e0: bc03 7ebe 16ae 0f3f 83e2 a1be 8a19 353e
000000f0: e43e 82bd aa62 5a3d c514 8cbe 05e1 c6be
00000100: 41ea febe a502 4c3d 64fb 0fbf 5b69 11bf
00000110: 124d 0c3f 9b6c 833e 27de cdbd 81e9 91be
00000120: afb4 0a3f 1ff3 d8bc eda5 02bf 92d4 df3e
00000130: 0de5 113f 5ea2 e43d e378 e13e 8a56 fbbe
00000140: bfee 8a3c 09b0 193f 0231 1abf 3f74 14bf
00000150: c47b 5e3d 875f 273e b687 1d3e 2f3d 33be
00000160: e4e7 023f 67ed e23e 23d8 1abf d5fe 14bf
00000170: 26f7 043f a527 7fbe b161 f03d 107c 5d3e
00000180: 6742 103e b2b4 a1be c8ac d5be 567f f2be
00000190: d18f 813e e7ca 9fbd 4d7b b6be 9e40 fdbe
000001a0: af55 a93e 0b76 aa3d f437 16bf cffc 08bd
000001b0: 94dc 2abe 13e5 8bbc d32d 1b3e 8e73 5a3e
000001c0: b889 15bf 73b9 b63d 73ba 9d3e 4a1f 1bbe
000001d0: 8124 ed3e c190 193f 0e49 2e3e f349 143f
000001e0: e94b 853e bf7a d1be 03a9 bf3e 0300 8abe
000001f0: f256 e5be df7e 0fbf e5f9 5c3d 11f6 0a3f
0.014448521 0.18695213 -0.3566097 0.30423486 0.4550584 0.05691702 0.28698638 -0.35693318
0.26066387 -0.35799247 -0.22458942 -0.122651644 -0.01090739 0.54656595 0.09030795 0.59894425
0.14444233 -0.19119346 -0.20247568 -0.05985653 -0.40183088 0.23758256 0.5476072 0.35197702
0.37448192 0.59467745 0.079109535 -0.037257183 -0.20703566 -0.51261526 -0.4055399 -0.03313105
-0.4318321 -0.4222845 0.10111589 -0.35191768 -0.50884557 -0.42535588 0.23452312 0.08409707
-0.5820654 -0.49412015 0.24462944 0.57356095 0.2121208 0.30821112 -0.028418433 0.25896242
0.2935459 -0.32883593 0.29720202 -0.1852565 0.21013927 -0.577006 -0.33185786 -0.397112
-0.24806112 0.5612501 -0.31618127 0.17685524 -0.06359652 0.05331675 -0.27359596 -0.3884355
-0.49788097 0.04980721 -0.56242967 -0.56801385 0.548051 0.25668797 -0.10052138 -0.28498462
0.5418195 -0.026483117 -0.5103443 0.43716866 0.5699013 0.111637816 0.44037542 -0.49089462
0.016959546 0.60034233 -0.6023103 -0.5798988 0.05431725 0.16345035 0.15383801 -0.17503808
0.51135087 0.4432175 -0.6048605 -0.5820134 0.5193962 -0.24917467 0.11737383 0.21629357
0.1408783 -0.31583172 -0.41733384 -0.47362775 0.25305036 -0.078023724 -0.35640946 -0.49463362
0.33073184 0.08323296 -0.5867913 -0.033444222 -0.16685706 -0.017077005 0.151542 0.21333143
-0.5841327 0.089220904 0.30806312 -0.15148655 0.46316913 0.599865 0.17020056 0.5792534
0.26034477 -0.4091396 0.37433633 -0.26953134 -0.44792897 -0.56052965 0.053949255 0.5428172

module.fc4.bias f4 [8]
00000000: 2cba e8bb 0000 0000 0000 0000 ace9 6fbd
00000010: 0000 0000 0000 0000 0000 0000 c111 0abc
-0.0071022715 0.0 0.0 -0.058572456 0.0 0.0 0.0 -0.008427084

module.fc5.weight f4 [2, 8]
00000000: cb56 9cbe 8e02 0e3e de10 903e 4150 0a3f
00000010: 793e 3b3f e22e eb3e d5dc 9dbe a4b0 01bd
00000020: b8b6 52bf 94e0 2bbf 4899 f0be 05ea 023f
00000030: 4b0f 193e 416c 33bb a740 123f 141d 94bd
-0.30534968 0.13868162 0.2813787 0.5402871 0.731422 0.45934206 -0.30832544 -0.0316626
-0.82310057 -0.67139554 -0.46991944 0.51138335 0.1494724 -0.0027377757 0.571299 -0.07232109

module.fc5.bias f4 [2]
00000000: a4c8 3bbe a5c8 3b3e
-0.18338257 0.18338259
