trained_models/DryBean_BeanMLP_trained.pth (torch, 3280 bytes, 4 tensors)

fc1.weight f4 [12, 16]
00000000: 41ff be3e af3e e43e 0c21 903e 9f9e 383f
00000010: 5e7a 3ebe 30bb 39bd f737 4c3c f451 033f
00000020: c685 463e 89bc 06be af55 a7bc ebbf 363e
00000030: 589e 6bbf 250e 93be d9fd a33e b69e b33b
00000040: 0174 043e b22f dc3e 8e79 793e 103a 923e
00000050: d593 b1be d05d 68be 6dc6 a03e 33cf ba3e
00000060: 7581 3b3d 08f7 88be 4dd4 c2be d071 bd3e
00000070: e0ac 03bf a2b3 523d 121f a63e 7742 1c3f
00000080: 52ba f5bd 9938 5e3e 6137 e63e 1370 07bf
00000090: f49e 953e a781 053f a48a 38be f4a3 31be
000000a0: e53e b1bd ae43 b4bd d035 13bf 11c3 d8be
000000b0: a904 9e3d c2b9 96be 40f3 33bf b6ec b1be
000000c0: 006e 0fbf 2dea e6be 7db0 37bf 20c0 50bf
000000d0: 6bf1 e9be e68a 97be 5a3f c1be f446 f3be
000000e0: ca61 75be c4d8 3e3e 3464 343e 6e7a fd3e
000000f0: e838 493f 9762 343f f955 c73e 5fc4 213f
00000100: 8850 9b3e 65dc cc3e 0112 3e3e 4e7f bf3d
00000110: 355d 603e 4db3 af3e fba1 0a3f d929 9b3e
00000120: c842 f93c 5dda 843e aebb 113f 382c 91be
00000130: 289f a13d b01a 75bd 02a4 c0be 2014 15bf
00000140: 145f bfbe 37d0 0bbe 3094 9ebc 6913 f03d
00000150: 6a01 25bf d481 033f 381e 19be 6701 0d3e
00000160: cadd 143d f63f 053e 9047 2d3f cdc4 823c
00000170: 708f 3abf b957 1bbf 5408 3dbe 5c22 b6be
00000180: fb8a 31be e4e3 5d3d d638 45bc 8a21 6fbd
00000190: 2099 c9be a335 003e 4ec3 84be abf4 9e3c
000001a0: 8780 f33c 2663 19bf 14af 07bf f29d 653e
000001b0: 534c e5be 7fde b7be d0a9 ad3e d728 543f
000001c0: 8727 42be 46c3 e9be b35b cebe 113f 18be
000001d0: 9cb8 b6be fde1 633d 7abb fabe 50fe 5cbe
000001e0: 88d7 8f3d b02b e63e c3fe 333e 9de3 7dbd
000001f0: f716 0c3f 0987 843e 94f5 14be eea5 033f
00000200: 13c9 fcbe c389 1dbf 9296 c0be fbc3 0bbf
00000210: 9119 54bc d296 143f 8618 0bbf 4278 c1be
00000220: f759 2fbe 5c55 a2be 3947 053e 6a89 09be
00000230: 1227 a23e ac64 2d3c b1db e3be 888a 18be
00000240: 25b2 44be 3f2c f3be bcd7 43be 7c2f 00bf
00000250: 4df3 68be 0866 4dbe 3b03 bfbe f6c7 bebd
00000260: 3b8f d2bd 2ab5 6ebe 1a80 943e 0cbd 253e
00000270: 795b 2e3f 046e be3e fde3 893d 8adf ac3e
00000280: 3959 573e 963f 7a3e ef8b 883d 9a6c 1f3f
00000290: 21ea e7be 0c02 16bf 44b1 8f3e f5ee 5d3e
000002a0: 3516 94bd e89b 7f3e 605f ed3d 8614 123f
000002b0: 2280 00bf b3a4 953e c138 f83d 82b5 e93e
000002c0: 09db 0c3c 7ef4 ab3e dae4 d6bd a4ea a33c
000002d0: 2b2d aebe fe2d 0ebf 0a86 cb3c 2be3 8f3e
000002e0: 3602 2d3e 0f90 a63e b5c7 483e 0cc5 723e
000002f0: 266d 19bf e114 c93e d317 823e 3066 f93e
0.37304118 0.44579074 0.28150213 0.72117037 -0.18601367 -0.04534453 0.012464515 0.51296926
0.19386968 -0.13157858 -0.0204266 0.17846648 -0.9203849 -0.2872173 0.32029608 0.0054815663
0.12934877 0.4300514 0.24362776 0.28559923 -0.346831 -0.22692037 0.31401387 0.36486205
0.045777757 -0.2675097 -0.38052598 0.37000895 -0.5143566 0.051440842 0.3244558 0.6103892
-0.119984284 0.21701278 0.44964126 -0.52905387 0.29222834 0.5215096 -0.18021637 -0.173477
-0.08654574 -0.088019714 -0.57503986 -0.42336324 0.077157326 -0.29438597 -0.70293045 -0.3475091
-0.5602722 -0.45100537 -0.71753675 -0.8154316 -0.45692 -0.2959816 -0.37743646 -0.4751507
-0.23963085 0.18637377 0.1761635 0.4950747 0.7860246 0.70462936 0.3893278 0.63190264
0.30334878 0.40011898 0.18561555 0.09350453 0.21910556 0.34316483 0.5415341 0.30305365
0.030427352 0.25947848 0.56927 -0.2835405 0.07891685 -0.059839904 -0.37625128 -0.58233833
-0.37377226 -0.13653646 -0.01935777 0.11722452 -0.6445528 0.51369977 -0.14952934 0.13770066
0.036344327 0.1301268 0.6768732 0.015962983 -0.7287512 -0.6068073 -0.18460208 -0.3557309
-0.17338173 0.05417241 -0.0120374765 -0.058381595 -0.39374638 0.12520461 -0.25930256 0.019403776
0.029724373 -0.59916914 -0.53001523 0.22423533 -0.44784793 -0.3591194 0.3391862 0.82874817
-0.18960391 -0.45656794 -0.40304336 -0.14867808 -0.3568772 0.05563544 -0.48971158 -0.21581388
0.07023531 0.44955206 0.17577653 -0.061984647 0.5472254 0.25884274 -0.14546806 0.51425064
-0.49372157 -0.6153833 -0.37614876 -0.5459592 -0.012945549 0.58042634 -0.54334295 -0.37787062
-0.17124163 -0.3170575 0.1301545 -0.13431326 0.31670433 0.010583084 -0.4450355 -0.14896595
-0.19208582 -0.47494695 -0.19125265 -0.50072455 -0.22749062 -0.20058453 -0.37307152 -0.09315483
-0.10281225 -0.23311296 0.29003984 0.16185397 0.68108326 0.3719331 0.067329384 0.33764297
0.2103013 0.24438319 0.06667315 0.6227509 -0.45295814 -0.58596873 0.2806493 0.21673186
-0.07230798 0.24961817 0.11590457 0.57062566 -0.50195515 0.29227218 0.121202 0.45646292
0.008597144 0.3358497 -0.10492869 0.020009346 -0.34018835 -0.5553893 0.024844188 0.28103003
0.16895375 0.32531783 0.19607432 0.2370798 -0.5993217 0.39273742 0.254088 0.48710775

fc1.bias f4 [12]
00000000: ecd6 8bbc 928e 7e3d 56ac c53e 9bd6 ec3e
00000010: 78dc 1bbf 54cb 643f 5a2e 083f 58c2 f03e
00000020: 9767 043f fef1 46bd 0d00 4abe 067e e6be
-0.017070256 0.062147684 0.38608044 0.4625748 -0.60883284 0.89372754 0.53195727 0.47023273
0.51720566 -0.048570625 -0.19726582 -0.45018023

fc2.weight f4 [7, 12]
00000000: 23d9 823e 8d57 153f 616c 413d cf63 aebe
00000010: 8ce3 45bf 8ae5 f7be ead2 433f 1648 42bf
00000020: b6bd e1be 3d0b 85be 4c44 f0bc 659b 0fbd
00000030: b530 8c3e a7e0 023f 5750 0ebf db85 bebe
00000040: be4e 0e3f 3a07 0abf 0bc5 b8be 0a22 07bf
00000050: 660e 21bf 2f48 94be 6566 7d3e 9f4b 7fbd
00000060: 904a c83e c967 d7bd d112 253e 97c8 47be
00000070: 9a29 d23e 0e05 1d3f 939b c1be df07 80bf
00000080: 84c4 60bf a531 21bf 6eea 0bbf 817a 12bf
00000090: 34b7 31be 4f7c a6be 711f 2ebf a5f1 e43e
000000a0: e132 c4be b9e0 25bf c4a3 86be b691 283f
000000b0: 5535 203f f76c 223f d53a 1dbf e938 d8be
000000c0: 48c0 4ebf 68f5 5abf 4ddd 3a3f d8fe b1be
000000d0: 2d9d c13d 410d 2bbf 9859 afbe be3b edbe
000000e0: 9b68 843e 8fd2 aebe f240 04bf bdee a13d
000000f0: cb50 b8be 8fde 063e 8c26 bebe 40dd c53e
00000100: 7b5e 9bbe 71e6 f0be 46ec 80bd 13f4 9b3e
00000110: 994d 1abf 6c27 933e 37d7 db3e eb42 193f
00000120: 75b6 76bf 5b81 53bf 4e2c 3dbc c93b 003e
00000130: 81c8 b2bf bdb9 8f3f 502b d33e 1fb0 a13e
00000140: e8fc ea3e a138 babd a498 d0be 7a2b 39bf
0.25556287 0.58336717 0.0472225 -0.34060523 -0.77300334 -0.48417312 0.76493704 -0.75891244
-0.4409005 -0.25985137 -0.029329441 -0.035060305 0.2738091 0.5112404 -0.5559134 -0.372115
0.555889 -0.53917277 -0.36087832 -0.52786314 -0.62912595 -0.28961322 0.24746092 -0.062327977
0.39119387 -0.10517842 0.16120459 -0.19510113 0.41047364 0.6133584 -0.37814006 -1.0002402
-0.8779986 -0.62966377 -0.54654586 -0.57218176 -0.17355043 -0.32516715 -0.68016726 0.4471561
-0.38320068 -0.64796025 -0.26296818 0.6584734 0.6258138 0.6344752 -0.61417896 -0.4223092
-0.8076215 -0.8553071 0.7299393 -0.34764743 0.09453807 -0.668171 -0.34248042 -0.46334642
0.25861058 -0.34145018 -0.516616 0.07906864 -0.3599914 0.13170837 -0.37138784 0.38645363
-0.3034552 -0.47050813 -0.062950656 0.3045965 -0.60274655 0.28741014 0.42937633 0.59867734
-0.9637216 -0.82619256 -0.011546208 0.12522806 -1.3967439 1.1228558 0.41243982 0.31579682
0.45896077 -0.09092832 -0.40741456 -0.72331965

fc2.bias f4 [7]
00000000: d082 ad3e fbe0 0bbf 250d e13d c202 acbe
00000010: baeb d73e 540d fdbe 6de6 d73e
0.33888865 -0.5464017 0.10988835 -0.33595854 0.42172033 -0.4942423 0.42167988
