trained_models/SimpleMLP_trained.pth (torch, 2336 bytes, 4 tensors)

fc1.weight f4 [6, 4]
0	0x3d6478ed	0.055779386
1	0xbeb5dfa5	-0.3552219
2	0x3ec8ff7c	0.3925742
3	0xbda159f9	-0.07878489
4	0xbe0737b4	-0.13204843
5	0xbf1c179d	-0.6097353
6	0xbf4873d9	-0.7830177
7	0xbe8bfaff	-0.27339932
8	0xbf1fd926	-0.6244072
9	0x3e36be74	0.1784609
10	0x3e15c0be	0.14624307
11	0x3e851ac7	0.25996992
12	0x3ee4c636	0.44682473
13	0x3e837fd4	0.25683463
14	0x3ea9a1e7	0.33131334
15	0xbe064bcb	-0.1311485
16	0xbe869744	-0.26287282
17	0xbf17eda5	-0.5934699
18	0xbc2aebae	-0.010432167
19	0xbe9a38e8	-0.3012154
20	0x3e955eda	0.29173928
21	0x3d3000f5	0.042969663
22	0x3ea2ca22	0.3179484
23	0xbef98921	-0.48737434

fc1.bias f4 [6]
0	0xbedfba35	-0.43696752
1	0xbc941cdf	-0.018080173
2	0x3f0529f0	0.52017117
3	0x3ef341e0	0.47511196
4	0x3f210ee1	0.6291333
5	0xbeaf5563	-0.34244832

fc2.weight f4 [2, 6]
0	0xbf067dec	-0.5253589
1	0xbf0fb183	-0.56130236
2	0xbefb634b	-0.49099192
3	0x3eee2284	0.46510708
4	0xbd959813	-0.073043965
5	0x3eab7a02	0.33491522
6	0xbdb924ac	-0.09040198
7	0xbd151c3a	-0.036403872
8	0x3eddaef6	0.43297547
9	0xbeedf5cd	-0.46476594
10	0x3eef1b12	0.4670034
11	0xbdbd94e0	-0.09256911

fc2.bias f4 [2]
0	0x3ea222e4	0.31667244
1	0xbeccf845	-0.40033165
