trained_models/Wine_WineMLP_trained.pth (torch, 2488 bytes, 4 tensors)

fc1.weight f4 [6, 13]
000000 9b 4b ee bd 8d 4c 92 be d7 b5 9a bb 66 7c 8d 3d
       -0.11635514 -0.2857403 -0.004721384 0.06908493
000010 75 b5 6d 3e 99 62 25 be 34 b0 34 3d f2 98 86 bd
       0.23213752 -0.16150893 0.044113353 -0.06572141
000020 ee 2a 71 3e 09 4a 16 be b6 24 ab bd 0c ee a2 3d
       0.23551533 -0.1467668 -0.083566114 0.0795556
000030 bb fb bd 3d 59 80 d0 3e 24 b8 90 be 4e 77 ba 3e
       0.092765294 0.40722921 -0.28265488 0.36419147
000040 54 3d d5 be ab c2 b2 3e f1 c9 b3 3e 11 0f 86 3e
       -0.41648352 0.34914145 0.35115007 0.2618337
000050 bb a0 e2 3d 55 c1 3f 3d 9b bb 25 bb ef 40 bc bd
       0.11065813 0.046815235 -0.0025288824 -0.091920726
000060 b7 6e b2 3e 1a f7 83 3e 9a 3b d5 bd a0 88 5b 3e
       0.34850094 0.2577446 -0.10411759 0.21438837
000070 8b e2 09 be c1 f5 1c be bb ab 18 be 1a c6 b0 3e
       -0.13465326 -0.15328123 -0.1490926 0.3452614
000080 5d 36 a6 3e fa 3a be 3d e3 1b 46 be 20 87 25 3e
       0.3246335 0.09288593 -0.19346575 0.16164827
000090 32 4a 38 3c c9 a9 5d 3e 41 02 d3 3c 92 9c 99 bc
       0.011248158 0.21646799 0.02575791 -0.018751416
0000a0 75 2f 7a 3e 89 18 43 3e ad f7 19 3e 21 77 14 be
       0.24432166 0.19052328 0.15035887 -0.14498569
0000b0 0d a6 93 be eb 3f ff 3d 3b ae 96 bd 40 6d 93 be
       -0.28837624 0.12463363 -0.073574506 -0.2879429
0000c0 b0 80 b8 3e f3 d0 25 be 2a 1c e1 bd f6 39 be 3d
       0.3603568 -0.16192989 -0.109917 0.09288399
0000d0 4e 85 f2 bd 59 d0 72 be d5 93 5e be 79 65 c9 3d
       -0.11841832 -0.23712291 -0.21736081 0.098338075
0000e0 9c e6 1b be 42 09 a8 3d 37 a4 99 3e 96 33 9d 3d
       -0.15224689 0.08204891 0.30008098 0.07675855
0000f0 ab 6f 9f be a9 eb 69 3d 13 e6 5b 3e d2 a9 12 3c
       -0.31139883 0.05710951 0.21474485 0.008951621
000100 59 f2 49 be 9c 68 b2 be 54 00 76 be 24 1e 03 be
       -0.19721355 -0.34845436 -0.24023563 -0.12804466
000110 40 2b dd 3d b5 e9 b0 be 89 5f 37 3d 06 ba 04 3e
       0.10799265 -0.34553304 0.044768844 0.12961587
000120 72 33 0b be b6 61 42 be b1 02 46 bd 5a b0 d5 bd
       -0.13593844 -0.18982586 -0.04834241 -0.10434027
000130 c2 7f cf bd be dc 8a 3d
       -0.1013179 0.067803845

fc1.bias f4 [6]
000000 2c 59 72 3e 23 60 b1 3e 7d a0 58 3e a1 dc 51 3e
       0.23666829 0.3464366 0.21154971 0.2049432
000010 0b 86 c6 3d 74 ac 1d bd
       0.096935354 -0.038494542

fc2.weight f4 [3, 6]
000000 f1 c4 38 3e 5c e4 20 3d e8 a5 bd 3e 5f 25 f6 bd
       0.18043877 0.03928028 0.3704064 -0.12018847
000010 b6 b2 e4 be 40 cb 6f be b5 20 d2 3e ac 6c d3 be
       -0.44667596 -0.23417377 0.41040578 -0.41293848
000020 37 46 e6 bd dc 33 2c be ce 62 2b 3e 5a 52 d0 3e
       -0.11243861 -0.16816658 0.1673691 0.4068783
000030 18 40 0d be d4 65 d0 be df f0 97 bc 55 b4 85 3e
       -0.13793981 -0.4070269 -0.018547473 0.26114145
000040 bf 40 0c bf e0 f9 5c 3c
       -0.54786295 0.013487309

fc2.bias f4 [3]
000000 8a f4 23 3e 51 cc a7 3e 0f 7c 95 3e
       0.16011253 0.3277307 0.29196212
